{"format": "layers-model", "generatedBy": "keras v3.12.1", "convertedBy": "TensorFlow.js Converter v4.22.0", "modelTopology": {"keras_version": "3.12.1", "backend": "tensorflow", "model_config": {"class_name": "Functional", "config": {"name": "functional", "trainable": true, "layers": [{"class_name": "InputLayer", "config": {"batch_shape": [null, 40], "dtype": "float32", "sparse": false, "ragged": false, "name": "enc_in"}, "name": "enc_in", "inbound_nodes": []}, {"class_name": "Embedding", "config": {"name": "embedding", "trainable": true, "dtype": {"module": "keras", "class_name": "DTypePolicy", "config": {"name": "float32"}, "registered_name": null}, "input_dim": 229, "output_dim": 128, "embeddings_initializer": {"module": "keras.initializers", "class_name": "RandomUniform", "config": {"seed": null, "minval": -0.05, "maxval": 0.05}, "registered_name": null}, "embeddings_regularizer": null, "activity_regularizer": null, "embeddings_constraint": null, "mask_zero": true}, "name": "embedding", "inbound_nodes": [{"args": [{"class_name": "__keras_tensor__", "config": {"shape": [null, 40], "dtype": "float32", "keras_history": ["enc_in", 0, 0]}}], "kwargs": {}}]}, {"class_name": "Add", "config": {"name": "add"}, "name": "add", "inbound_nodes": [{"args": [{"class_name": "__keras_tensor__", "config": {"shape": [null, 40, 128], "dtype": "float32", "keras_history": ["embedding", 0, 0]}}, {"class_name": "__tensor__", "config": {"value": [[[… "dtype": "float32"}}], "kwargs": {}}]}, {"class_name": "MultiHeadAttention", "config": {"name": "multi_head_attention", "trainable": true, "dtype": {"module": "keras", "class_name": "DTypePolicy", "config": {"name": "float32"}, "registered_name": null}, "num_heads": 4, "key_dim": 128, "value_dim": 128, "dropout": 0.0, "use_bias": true, "output_shape": null, "attention_axes": [1], "kernel_initializer": {"module": "keras.initializers", "class_name": "GlorotUniform", "config": {"seed": null}, "registered_name": null}, "bias_initializer": {"module": "keras.initializers", "class_name": "Zeros", "config": {}, "registered_name": null}, "kernel_regularizer": null, "bias_regularizer": null, "activity_regularizer": null, "kernel_constraint": null, "bias_constraint": null, "seed": null}, "name": "multi_head_attention", "inbound_nodes": [{"args": [{"class_name": "__keras_tensor__", "config": {"shape": [null, 40, 128], "dtype": "float32", "keras_history": ["add", 0, 0]}}, {"class_name": "__keras_tensor__", "config": {"shape": [null, 40, 128], "dtype": "float32", "keras_history": ["add", 0, 0]}}], "kwargs": {}}]}, {"class_name": "Dropout", "config": {"name": "dropout_1", "trainable": true, "dtype": {"module": "keras", "class_name": "DTypePolicy", "config": {"name": "float32"}, "registered_name": null}, "rate": 0.1, "seed": null, "noise_shape": null}, "name": "dropout_1", "inbound_nodes": [{"args": [{"class_name": "__keras_tensor__", "config": {"shape": [null, 40, 128], "dtype": "float32", "keras_history": ["multi_head_attention", 0, 0]}}], "kwargs": {"training": false}}]}, {"class_name": "InputLayer", "config": {"batch_shape": [null, 39], "dtype": "float32", "sparse": false, "ragged": false, "name": "dec_in"}, "name": "dec_in", "inbound_nodes": []}, {"class_name": "Add", "config": {"name": "add_1"}, "name": "add_1", "inbound_nodes": [{"args": [{"class_name": "__keras_tensor__", "config": {"shape": [null, 40, 128], "dtype": "float32", "keras_history": ["add", 0, 0]}}, {"class_name": "__keras_tensor__", "config": {"shape": [null, 40, 128], "dtype": "float32", "keras_history": ["dropout_1", 0, 0]}}], "kwargs": {}}]}, {"class_name": "Embedding", "config": {"name": "embedding_2", "trainable": true, "dtype": {"module": "keras", "class_name": "DTypePolicy", "config": {"name": "float32"}, "registered_name": null}, "input_dim": 229, "output_dim": 128, "embeddings_initializer": {"module": "keras.initializers", "class_name": "RandomUniform", "config": {"seed": null, "minval": -0.05, "maxval": 0.05}, "registered_name": null}, "embeddings_regularizer": null, "activity_regularizer": null, "embeddings_constraint": null, "mask_zero": true}, "name": "embedding_2", "inbound_nodes": [{"args": [{"class_name": "__keras_tensor__", "config": {"shape": [null, 39], "dtype": "float32", "keras_history": ["dec_in", 0, 0]}}], "kwargs": {}}]}, {"class_name": "LayerNormalization", "config": {"name": "layer_normalization", "trainable": true, "dtype": {"module": "keras", "class_name": "DTypePolicy", "config": {"name": "float32"}, "registered_name": null}, "axis": [-1], "epsilon": 1e-06, "center": true, "scale": true, "rms_scaling": false, "beta_initializer": {"module": "keras.initializers", "class_name": "Zeros", "config": {}, "registered_name": null}, "gamma_initializer": {"module": "keras.initializers", "class_name": "Ones", "config": {}, "registered_name": null}, "beta_regularizer": null, "gamma_regularizer": null, "beta_constraint": null, "gamma_constraint": null}, "name": "layer_normalization", "inbound_nodes": [{"args": [{"class_name": "__keras_tensor__", "config": {"shape": [null, 40, 128], "dtype": "float32", "keras_history": ["add_1", 0, 0]}}], "kwargs": {}}]}, {"class_name": "Add", "config": {"name": "add_3"}, "name": "add_3", "inbound_nodes": [{"args": [{"class_name": "__keras_tensor__", "config": {"shape": [null, 39, 128], "dtype": "float32", "keras_history": ["embedding_2", 0, 0]}}, {"class_name": "__tensor__", "config": {"value": [[[… "dtype": "float32"}}], "kwargs": {}}]}, {"class_name": "Dense", "config": {"name": "dense", "trainable": true, "dtype": {"module": "keras", "class_name": "DTypePolicy", "config": {"name": "float32"}, "registered_name": null}, "units": 128, "activation": "relu", "use_bias": true, "kernel_initializer": {"module": "keras.initializers", "class_name": "GlorotUniform", "config": {"seed": null}, "registered_name": null}, "bias_initializer": {"module": "keras.initializers", "class_name": "Zeros", "config": {}, "registered_name": null}, "kernel_regularizer": null, "bias_regularizer": null, "kernel_constraint": null, "bias_constraint": null}, "name": "dense", "inbound_nodes": [{"args": [{"class_name": "__keras_tensor__", "config": {"shape": [null, 40, 128], "dtype": "float32", "keras_history": ["layer_normalization", 0, 0]}}], "kwargs": {}}]}, {"class_name": "MultiHeadAttention", "config": {"name": "multi_head_attention_1", "trainable": true, "dtype": {"module": "keras", "class_name": "DTypePolicy", "config": {"name": "float32"}, "registered_name": null}, "num_heads": 4, "key_dim": 128, "value_dim": 128, "dropout": 0.0, "use_bias": true, "output_shape": null, "attention_axes": [1], "kernel_initializer": {"module": "keras.initializers", "class_name": "GlorotUniform", "config": {"seed": null}, "registered_name": null}, "bias_initializer": {"module": "keras.initializers", "class_name": "Zeros", "config": {}, "registered_name": null}, "kernel_regularizer": null, "bias_regularizer": null, "activity_regularizer": null, "kernel_constraint": null, "bias_constraint": null, "seed": null}, "name": "multi_head_attention_1", "inbound_nodes": [{"args": [{"class_name": "__keras_tensor__", "config": {"shape": [null, 39, 128], "dtype": "float32", "keras_history": ["add_3", 0, 0]}}, {"class_name": "__keras_tensor__", "config": {"shape": [null, 39, 128], "dtype": "float32", "keras_history": ["add_3", 0, 0]}}], "kwargs": {"use_causal_mask": true}}]}, {"class_name": "Dense", "config": {"name": "dense_1", "trainable": true, "dtype": {"module": "keras", "class_name": "DTypePolicy", "config": {"name": "float32"}, "registered_name": null}, "units": 128, "activation": "linear", "use_bias": true, "kernel_initializer": {"module": "keras.initializers", "class_name": "GlorotUniform", "config": {"seed": null}, "registered_name": null}, "bias_initializer": {"module": "keras.initializers", "class_name": "Zeros", "config": {}, "registered_name": null}, "kernel_regularizer": null, "bias_regularizer": null, "kernel_constraint": null, "bias_constraint": null}, "name": "dense_1", "inbound_nodes": [{"args": [{"class_name": "__keras_tensor__", "config": {"shape": [null, 40, 128], "dtype": "float32", "keras_history": ["dense", 0, 0]}}], "kwargs": {}}]}, {"class_name": "Dropout", "config": {"name": "dropout_4", "trainable": true, "dtype": {"module": "keras", "class_name": "DTypePolicy", "config": {"name": "float32"}, "registered_name": null}, "rate": 0.1, "seed": null, "noise_shape": null}, "name": "dropout_4", "inbound_nodes": [{"args": [{"class_name": "__keras_tensor__", "config": {"shape": [null, 39, 128], "dtype": "float32", "keras_history": ["multi_head_attention_1", 0, 0]}}], "kwargs": {"training": false}}]}, {"class_name": "Dropout", "config": {"name": "dropout_2", "trainable": true, "dtype": {"module": "keras", "class_name": "DTypePolicy", "config": {"name": "float32"}, "registered_name": null}, "rate": 0.1, "seed": null, "noise_shape": null}, "name": "dropout_2", "inbound_nodes": [{"args": [{"class_name": "__keras_tensor__", "config": {"shape": [null, 40, 128], "dtype": "float32", "keras_history": ["dense_1", 0, 0]}}], "kwargs": {"training": false}}]}, {"class_name": "Add", "config": {"name": "add_4"}, "name": "add_4", "inbound_nodes": [{"args": [{"class_name": "__keras_tensor__", "config": {"shape": [null, 39, 128], "dtype": "float32", "keras_history": ["add_3", 0, 0]}}, {"class_name": "__keras_tensor__", "config": {"shape": [null, 39, 128], "dtype": "float32", "keras_history": ["dropout_4", 0, 0]}}], "kwargs": {}}]}, {"class_name": "Add", "config": {"name": "add_2"}, "name": "add_2", "inbound_nodes": [{"args": [{"class_name": "__keras_tensor__", "config": {"shape": [null, 40, 128], "dtype": "float32", "keras_history": ["layer_normalization", 0, 0]}}, {"class_name": "__keras_tensor__", "config": {"shape": [null, 40, 128], "dtype": "float32", "keras_history": ["dropout_2", 0, 0]}}], "kwargs": {}}]}, {"class_name": "LayerNormalization", "config": {"name": "layer_normalization_2", "trainable": true, "dtype": {"module": "keras", "class_name": "DTypePolicy", "config": {"name": "float32"}, "registered_name": null}, "axis": [-1], "epsilon": 1e-06, "center": true, "scale": true, "rms_scaling": false, "beta_initializer": {"module": "keras.initializers", "class_name": "Zeros", "config": {}, "registered_name": null}, "gamma_initializer": {"module": "keras.initializers", "class_name": "Ones", "config": {}, "registered_name": null}, "beta_regularizer": null, "gamma_regularizer": null, "beta_constraint": null, "gamma_constraint": null}, "name": "layer_normalization_2", "inbound_nodes": [{"args": [{"class_name": "__keras_tensor__", "config": {"shape": [null, 39, 128], "dtype": "float32", "keras_history": ["add_4", 0, 0]}}], "kwargs": {}}]}, {"class_name": "LayerNormalization", "config": {"name": "layer_normalization_1", "trainable": true, "dtype": {"module": "keras", "class_name": "DTypePolicy", "config": {"name": "float32"}, "registered_name": null}, "axis": [-1], "epsilon": 1e-06, "center": true, "scale": true, "rms_scaling": false, "beta_initializer": {"module": "keras.initializers", "class_name": "Zeros", "config": {}, "registered_name": null}, "gamma_initializer": {"module": "keras.initializers", "class_name": "Ones", "config": {}, "registered_name": null}, "beta_regularizer": null, "gamma_regularizer": null, "beta_constraint": null, "gamma_constraint": null}, "name": "layer_normalization_1", "inbound_nodes": [{"args": [{"class_name": "__keras_tensor__", "config": {"shape": [null, 40, 128], "dtype": "float32", "keras_history": ["add_2", 0, 0]}}], "kwargs": {}}]}, {"class_name": "MultiHeadAttention", "config": {"name": "multi_head_attention_2", "trainable": true, "dtype": {"module": "keras", "class_name": "DTypePolicy", "config": {"name": "float32"}, "registered_name": null}, "num_heads": 4, "key_dim": 128, "value_dim": 128, "dropout": 0.0, "use_bias": true, "output_shape": null, "attention_axes": [1], "kernel_initializer": {"module": "keras.initializers", "class_name": "GlorotUniform", "config": {"seed": null}, "registered_name": null}, "bias_initializer": {"module": "keras.initializers", "class_name": "Zeros", "config": {}, "registered_name": null}, "kernel_regularizer": null, "bias_regularizer": null, "activity_regularizer": null, "kernel_constraint": null, "bias_constraint": null, "seed": null}, "name": "multi_head_attention_2", "inbound_nodes": [{"args": [{"class_name": "__keras_tensor__", "config": {"shape": [null, 39, 128], "dtype": "float32", "keras_history": ["layer_normalization_2", 0, 0]}}, {"class_name": "__keras_tensor__", "config": {"shape": [null, 40, 128], "dtype": "float32", "keras_history": ["layer_normalization_1", 0, 0]}}], "kwargs": {}}]}, {"class_name": "Dropout", "config": {"name": "dropout_6", "trainable": true, "dtype": {"module": "keras", "class_name": "DTypePolicy", "config": {"name": "float32"}, "registered_name": null}, "rate": 0.1, "seed": null, "noise_shape": null}, "name": "dropout_6", "inbound_nodes": [{"args": [{"class_name": "__keras_tensor__", "config": {"shape": [null, 39, 128], "dtype": "float32", "keras_history": ["multi_head_attention_2", 0, 0]}}], "kwargs": {"training": false}}]}, {"class_name": "Add", "config": {"name": "add_5"}, "name": "add_5", "inbound_nodes": [{"args": [{"class_name": "__keras_tensor__", "config": {"shape": [null, 39, 128], "dtype": "float32", "keras_history": ["layer_normalization_2", 0, 0]}}, {"class_name": "__keras_tensor__", "config": {"shape": [null, 39, 128], "dtype": "float32", "keras_history": ["dropout_6", 0, 0]}}], "kwargs": {}}]}, {"class_name": "LayerNormalization", "config": {"name": "layer_normalization_3", "trainable": true, "dtype": {"module": "keras", "class_name": "DTypePolicy", "config": {"name": "float32"}, "registered_name": null}, "axis": [-1], "epsilon": 1e-06, "center": true, "scale": true, "rms_scaling": false, "beta_initializer": {"module": "keras.initializers", "class_name": "Zeros", "config": {}, "registered_name": null}, "gamma_initializer": {"module": "keras.initializers", "class_name": "Ones", "config": {}, "registered_name": null}, "beta_regularizer": null, "gamma_regularizer": null, "beta_constraint": null, "gamma_constraint": null}, "name": "layer_normalization_3", "inbound_nodes": [{"args": [{"class_name": "__keras_tensor__", "config": {"shape": [null, 39, 128], "dtype": "float32", "keras_history": ["add_5", 0, 0]}}], "kwargs": {}}]}, {"class_name": "Dense", "config": {"name": "dense_2", "trainable": true, "dtype": {"module": "keras", "class_name": "DTypePolicy", "config": {"name": "float32"}, "registered_name": null}, "units": 128, "activation": "relu", "use_bias": true, "kernel_initializer": {"module": "keras.initializers", "class_name": "GlorotUniform", "config": {"seed": null}, "registered_name": null}, "bias_initializer": {"module": "keras.initializers", "class_name": "Zeros", "config": {}, "registered_name": null}, "kernel_regularizer": null, "bias_regularizer": null, "kernel_constraint": null, "bias_constraint": null}, "name": "dense_2", "inbound_nodes": [{"args": [{"class_name": "__keras_tensor__", "config": {"shape": [null, 39, 128], "dtype": "float32", "keras_history": ["layer_normalization_3", 0, 0]}}], "kwargs": {}}]}, {"class_name": "Dense", "config": {"name": "dense_3", "trainable": true, "dtype": {"module": "keras", "class_name": "DTypePolicy", "config": {"name": "float32"}, "registered_name": null}, "units": 128, "activation": "linear", "use_bias": true, "kernel_initializer": {"module": "keras.initializers", "class_name": "GlorotUniform", "config": {"seed": null}, "registered_name": null}, "bias_initializer": {"module": "keras.initializers", "class_name": "Zeros", "config": {}, "registered_name": null}, "kernel_regularizer": null, "bias_regularizer": null, "kernel_constraint": null, "bias_constraint": null}, "name": "dense_3", "inbound_nodes": [{"args": [{"class_name": "__keras_tensor__", "config": {"shape": [null, 39, 128], "dtype": "float32", "keras_history": ["dense_2", 0, 0]}}], "kwargs": {}}]}, {"class_name": "Dropout", "config": {"name": "dropout_7", "trainable": true, "dtype": {"module": "keras", "class_name": "DTypePolicy", "config": {"name": "float32"}, "registered_name": null}, "rate": 0.1, "seed": null, "noise_shape": null}, "name": "dropout_7", "inbound_nodes": [{"args": [{"class_name": "__keras_tensor__", "config": {"shape": [null, 39, 128], "dtype": "float32", "keras_history": ["dense_3", 0, 0]}}], "kwargs": {"training": false}}]}, {"class_name": "Add", "config": {"name": "add_6"}, "name": "add_6", "inbound_nodes": [{"args": [{"class_name": "__keras_tensor__", "config": {"shape": [null, 39, 128], "dtype": "float32", "keras_history": ["layer_normalization_3", 0, 0]}}, {"class_name": "__keras_tensor__", "config": {"shape": [null, 39, 128], "dtype": "float32", "keras_history": ["dropout_7", 0, 0]}}], "kwargs": {}}]}, {"class_name": "LayerNormalization", "config": {"name": "layer_normalization_4", "trainable": true, "dtype": {"module": "keras", "class_name": "DTypePolicy", "config": {"name": "float32"}, "registered_name": null}, "axis": [-1], "epsilon": 1e-06, "center": true, "scale": true, "rms_scaling": false, "beta_initializer": {"module": "keras.initializers", "class_name": "Zeros", "config": {}, "registered_name": null}, "gamma_initializer": {"module": "keras.initializers", "class_name": "Ones", "config": {}, "registered_name": null}, "beta_regularizer": null, "gamma_regularizer": null, "beta_constraint": null, "gamma_constraint": null}, "name": "layer_normalization_4", "inbound_nodes": [{"args": [{"class_name": "__keras_tensor__", "config": {"shape": [null, 39, 128], "dtype": "float32", "keras_history": ["add_6", 0, 0]}}], "kwargs": {}}]}, {"class_name": "Dense", "config": {"name": "dense_4", "trainable": true, "dtype": {"module": "keras", "class_name": "DTypePolicy", "config": {"name": "float32"}, "registered_name": null}, "units": 229, "activation": "softmax", "use_bias": true, "kernel_initializer": {"module": "keras.initializers", "class_name": "GlorotUniform", "config": {"seed": null}, "registered_name": null}, "bias_initializer": {"module": "keras.initializers", "class_name": "Zeros", "config": {}, "registered_name": null}, "kernel_regularizer": null, "bias_regularizer": null, "kernel_constraint": null, "bias_constraint": null}, "name": "dense_4", "inbound_nodes": [{"args": [{"class_name": "__keras_tensor__", "config": {"shape": [null, 39, 128], "dtype": "float32", "keras_history": ["layer_normalization_4", 0, 0]}}], "kwargs": {}}]}], "input_layers": [["enc_in", 0, 0], ["dec_in", 0, 0]], "output_layers": ["dense_4", 0, 0]}}, "training_config": {"loss": "sparse_categorical_crossentropy", "loss_weights": null, "metrics": ["accuracy"], "weighted_metrics": null, "run_eagerly": false, "steps_per_execution": 1, "jit_compile": false, "optimizer_config": {"class_name": "Adam", "config": {"name": "adam", "learning_rate": 0.0010000000474974513, "weight_decay": null, "clipnorm": null, "global_clipnorm": null, "clipvalue": null, "use_ema": false, "ema_momentum": 0.99, "ema_overwrite_frequency": null, "loss_scale_factor": null, "gradient_accumulation_steps": null, "beta_1": 0.9, "beta_2": 0.999, "epsilon": 1e-07, "amsgrad": false}}}}, "weightsManifest": [{"paths": ["group1-shard1of1.bin"], "weights": [{"name": "dense/kernel", "shape": [128, 128], "dtype": "float32"}, {"name": "dense/bias", "shape": [128], "dtype": "float32"}, {"name": "dense_1/kernel", "shape": [128, 128], "dtype": "float32"}, {"name": "dense_1/bias", "shape": [128], "dtype": "float32"}, {"name": "dense_2/kernel", "shape": [128, 128], "dtype": "float32"}, {"name": "dense_2/bias", "shape": [128], "dtype": "float32"}, {"name": "dense_3/kernel", "shape": [128, 128], "dtype": "float32"}, {"name": "dense_3/bias", "shape": [128], "dtype": "float32"}, {"name": "dense_4/kernel", "shape": [128, 229], "dtype": "float32"}, {"name": "dense_4/bias", "shape": [229], "dtype": "float32"}, {"name": "embedding/embeddings", "shape": [229, 128], "dtype": "float32"}, {"name": "embedding_2/embeddings", "shape": [229, 128], "dtype": "float32"}, {"name": "layer_normalization/gamma", "shape": [128], "dtype": "float32"}, {"name": "layer_normalization/beta", "shape": [128], "dtype": "float32"}, {"name": "layer_normalization_1/gamma", "shape": [128], "dtype": "float32"}, {"name": "layer_normalization_1/beta", "shape": [128], "dtype": "float32"}, {"name": "layer_normalization_2/gamma", "shape": [128], "dtype": "float32"}, {"name": "layer_normalization_2/beta", "shape": [128], "dtype": "float32"}, {"name": "layer_normalization_3/gamma", "shape": [128], "dtype": "float32"}, {"name": "layer_normalization_3/beta", "shape": [128], "dtype": "float32"}, {"name": "layer_normalization_4/gamma", "shape": [128], "dtype": "float32"}, {"name": "layer_normalization_4/beta", "shape": [128], "dtype": "float32"}, {"name": "multi_head_attention/query/kernel", "shape": [128, 4, 128], "dtype": "float32"}, {"name": "multi_head_attention/query/bias", "shape": [4, 128], "dtype": "float32"}, {"name": "multi_head_attention/key/kernel", "shape": [128, 4, 128], "dtype": "float32"}, {"name": "multi_head_attention/key/bias", "shape": [4, 128], "dtype": "float32"}, {"name": "multi_head_attention/value/kernel", "shape": [128, 4, 128], "dtype": "float32"}, {"name": "multi_head_attention/value/bias", "shape": [4, 128], "dtype": "float32"}, {"name": "multi_head_attention/attention_output/kernel", "shape": [4, 128, 128], "dtype": "float32"}, {"name": "multi_head_attention/attention_output/bias", "shape": [128], "dtype": "float32"}, {"name": "multi_head_attention_1/query/kernel", "shape": [128, 4, 128], "dtype": "float32"}, {"name": "multi_head_attention_1/query/bias", "shape": [4, 128], "dtype": "float32"}, {"name": "multi_head_attention_1/key/kernel", "shape": [128, 4, 128], "dtype": "float32"}, {"name": "multi_head_attention_1/key/bias", "shape": [4, 128], "dtype": "float32"}, {"name": "multi_head_attention_1/value/kernel", "shape": [128, 4, 128], "dtype": "float32"}, {"name": "multi_head_attention_1/value/bias", "shape": [4, 128], "dtype": "float32"}, {"name": "multi_head_attention_1/attention_output/kernel", "shape": [4, 128, 128], "dtype": "float32"}, {"name": "multi_head_attention_1/attention_output/bias", "shape": [128], "dtype": "float32"}, {"name": "multi_head_attention_2/query/kernel", "shape": [128, 4, 128], "dtype": "float32"}, {"name": "multi_head_attention_2/query/bias", "shape": [4, 128], "dtype": "float32"}, {"name": "multi_head_attention_2/key/kernel", "shape": [128, 4, 128], "dtype": "float32"}, {"name": "multi_head_attention_2/key/bias", "shape": [4, 128], "dtype": "float32"}, {"name": "multi_head_attention_2/value/kernel", "shape": [128, 4, 128], "dtype": "float32"}, {"name": "multi_head_attention_2/value/bias", "shape": [4, 128], "dtype": "float32"}, {"name": "multi_head_attention_2/attention_output/kernel", "shape": [4, 128, 128], "dtype": "float32"}, {"name": "multi_head_attention_2/attention_output/bias", "shape": [128], "dtype": "float32"}]}]}